…
concat,"PPOConfig: {'scenario_name': 'balance', 'strategy': <EmbeddingStrategy.CONCAT: 'concat'>, 'n_agents': 20, 'decentralized_execution': True, 'frames_per_batch': 6000, 'n_iters': 10, 'num_epochs': 8, 'minibatch_size': 400, 'lr': 0.0003, 'max_grad_norm': 1.0, 'clip_epsilon': 0.2, 'gamma': 0.99, 'lmbda': 0.9, 'entropy_eps': 0.0001, 'max_steps': 200, 'embedding_depth': 2, 'embedding_num_cells': None, 'hidden_layer_width': 48, 'use_encoder_mlp': True, 'attention_heads': 2, 'model_dim': 32, 'max_agents': 20, 'inducing_points': 4, 'mlp_core_depth': 2, 'mlp_core_num_cells': 64, 'pooling_method': 'mean', 'embedding_mlp_critic': None, 'core_mlp_actor': MultiAgentMLP(
    MLP(
      (0): Linear(in_features=16, out_features=64, bias=True)
      (1): Tanh()
      (2): Linear(in_features=64, out_features=64, bias=True)
      (3): Tanh()
      (4): Linear(in_features=64, out_features=4, bias=True)
    ),
    n_agents=20,
    share_params=True,
    centralized=False,
    agent_dim=-2), 'core_mlp_critic': MLP(
  (0): Linear(in_features=288, out_features=64, bias=True)
  (1): Tanh()
  (2): Linear(in_features=64, out_features=64, bias=True)
  (3): Tanh()
  (4): Linear(in_features=64, out_features=1, bias=True)
), 'profile': False, 'use_strategy_defaults': True}","{'inference_time': 0.05641361217402933, 'inference_memory_usage': 0.0, 'loss': [… 'mean_rewards': [… 'training_memory_usage': 0.0, 'training_time': 947.5781092643738, 'flops': None, 'parameters': None}"
mlp,"PPOConfig: {'scenario_name': 'balance', 'strategy': <EmbeddingStrategy.MLP: 'mlp'>, 'n_agents': 20, 'decentralized_execution': True, 'frames_per_batch': 6000, 'n_iters': 10, 'num_epochs': 8, 'minibatch_size': 400, 'lr': 0.0003, 'max_grad_norm': 1.0, 'clip_epsilon': 0.2, 'gamma': 0.99, 'lmbda': 0.9, 'entropy_eps': 0.0001, 'max_steps': 200, 'embedding_depth': None, 'embedding_num_cells': None, 'hidden_layer_width': 48, 'use_encoder_mlp': True, 'attention_heads': 2, 'model_dim': 32, 'max_agents': 20, 'inducing_points': 4, 'mlp_core_depth': 2, 'mlp_core_num_cells': 256, 'pooling_method': 'mean', 'embedding_mlp_critic': Identity(), 'embedding_mlp_actor': None, 'core_mlp_actor': MultiAgentMLP(
    MLP(
      (0): Linear(in_features=16, out_features=256, bias=True)
      (1): Tanh()
      (2): Linear(in_features=256, out_features=256, bias=True)
      (3): Tanh()
      (4): Linear(in_features=256, out_features=4, bias=True)
    ),
    n_agents=20,
    share_params=True,
    centralized=False,
    agent_dim=-2), 'core_mlp_critic': MLP(
  (0): Linear(in_features=16, out_features=256, bias=True)
  (1): Tanh()
  (2): Linear(in_features=256, out_features=256, bias=True)
  (3): Tanh()
  (4): Linear(in_features=256, out_features=1, bias=True)
), 'profile': False, 'use_strategy_defaults': True}","{'inference_time': 0.08693355890973725, 'inference_memory_usage': 0.0, 'loss': [… 'mean_rewards': [… 'training_memory_usage': 0.0, 'training_time': 2509.259660959244, 'flops': None, 'parameters': None}"
mlp_local,"PPOConfig: {'scenario_name': 'balance', 'strategy': <EmbeddingStrategy.MLP_LOCAL: 'mlp_local'>, 'n_agents': 20, 'decentralized_execution': True, 'frames_per_batch': 6000, 'n_iters': 10, 'num_epochs': 8, 'minibatch_size': 400, 'lr': 0.0003, 'max_grad_norm': 1.0, 'clip_epsilon': 0.2, 'gamma': 0.99, 'lmbda': 0.9, 'entropy_eps': 0.0001, 'max_steps': 200, 'embedding_depth': None, 'embedding_num_cells': None, 'hidden_layer_width': 48, 'use_encoder_mlp': True, 'attention_heads': 2, 'model_dim': 32, 'max_agents': 20, 'inducing_points': 4, 'mlp_core_depth': 2, 'mlp_core_num_cells': 128, 'pooling_method': 'mean', 'embedding_mlp_critic': MLPLocal(
  (embedding_mlp): Identity()
), 'embedding_mlp_actor': None, 'core_mlp_actor': MultiAgentMLP(
    MLP(
      (0): Linear(in_features=16, out_features=128, bias=True)
      (1): Tanh()
      (2): Linear(in_features=128, out_features=128, bias=True)
      (3): Tanh()
      (4): Linear(in_features=128, out_features=4, bias=True)
    ),
    n_agents=20,
    share_params=True,
    centralized=False,
    agent_dim=-2), 'core_mlp_critic': MLP(
  (0): Linear(in_features=32, out_features=128, bias=True)
  (1): Tanh()
  (2): Linear(in_features=128, out_features=128, bias=True)
  (3): Tanh()
  (4): Linear(in_features=128, out_features=1, bias=True)
), 'profile': False, 'use_strategy_defaults': True}","{'inference_time': 0.06395247713405283, 'inference_memory_usage': 0.0, 'loss': [… 'mean_rewards': [… 'training_memory_usage': 0.0, 'training_time': 1281.1215739250183, 'flops': None, 'parameters': None}"
graph_sage,"PPOConfig: {'scenario_name': 'balance', 'strategy': <EmbeddingStrategy.GRAPH_SAGE: 'graph_sage'>, 'n_agents': 20, 'decentralized_execution': True, 'frames_per_batch': 6000, 'n_iters': 10, 'num_epochs': 8, 'minibatch_size': 400, 'lr': 0.0003, 'max_grad_norm': 1.0, 'clip_epsilon': 0.2, 'gamma': 0.99, 'lmbda': 0.9, 'entropy_eps': 0.0001, 'max_steps': 200, 'embedding_depth': 2, 'embedding_num_cells': None, 'hidden_layer_width': 16, 'use_encoder_mlp': True, 'attention_heads': 2, 'model_dim': 32, 'max_agents': 20, 'inducing_points': 4, 'mlp_core_depth': 2, 'mlp_core_num_cells': 64, 'pooling_method': 'mean', 'embedding_mlp_critic': None, 'core_mlp_actor': MultiAgentMLP(
    MLP(
      (0): Linear(in_features=16, out_features=64, bias=True)
      (1): Tanh()
      (2): Linear(in_features=64, out_features=64, bias=True)
      (3): Tanh()
      (4): Linear(in_features=64, out_features=4, bias=True)
    ),
    n_agents=20,
    share_params=True,
    centralized=False,
    agent_dim=-2), 'core_mlp_critic': GSAGE(
  (mlp_in): Sequential(
    (0): Linear(in_features=16, out_features=16, bias=True)
    (1): ReLU()
    (2): Linear(in_features=16, out_features=16, bias=True)
  )
  (sage): SAGEConv(16, 16, aggr=mean)
  (norm): LayerNorm((16,), eps=1e-05, elementwise_affine=True)
  (mlp_out): Sequential(
    (0): Linear(in_features=16, out_features=16, bias=True)
    (1): ReLU()
    (2): Linear(in_features=16, out_features=1, bias=True)
  )
), 'profile': False, 'use_strategy_defaults': True}","{'inference_time': 0.05252578989345224, 'inference_memory_usage': 0.0, 'loss': [… 'mean_rewards': [… 'training_memory_usage': 0.0, 'training_time': 971.1349687576294, 'flops': None, 'parameters': None}"
graph_gat,"PPOConfig: {'scenario_name': 'balance', 'strategy': <EmbeddingStrategy.GRAPH_GAT: 'graph_gat'>, 'n_agents': 20, 'decentralized_execution': True, 'frames_per_batch': 6000, 'n_iters': 10, 'num_epochs': 8, 'minibatch_size': 400, 'lr': 0.0003, 'max_grad_norm': 1.0, 'clip_epsilon': 0.2, 'gamma': 0.99, 'lmbda': 0.9, 'entropy_eps': 0.0001, 'max_steps': 200, 'embedding_depth': 2, 'embedding_num_cells': None, 'hidden_layer_width': 64, 'use_encoder_mlp': True, 'attention_heads': 1, 'model_dim': 32, 'max_agents': 20, 'inducing_points': 4, 'mlp_core_depth': 2, 'mlp_core_num_cells': 64, 'pooling_method': 'mean', 'embedding_mlp_critic': None, 'core_mlp_actor': MultiAgentMLP(
    MLP(
      (0): Linear(in_features=16, out_features=64, bias=True)
      (1): Tanh()
      (2): Linear(in_features=64, out_features=64, bias=True)
      (3): Tanh()
      (4): Linear(in_features=64, out_features=4, bias=True)
    ),
    n_agents=20,
    share_params=True,
    centralized=False,
    agent_dim=-2), 'core_mlp_critic': GAT(
  (mlp_in): Sequential(
    (0): Linear(in_features=16, out_features=64, bias=True)
    (1): ReLU()
    (2): Linear(in_features=64, out_features=64, bias=True)
  )
  (gat): GATConv(64, 64, heads=1)
  (norm): LayerNorm((64,), eps=1e-05, elementwise_affine=True)
  (mlp_out): Sequential(
    (0): Linear(in_features=64, out_features=64, bias=True)
    (1): ReLU()
    (2): Linear(in_features=64, out_features=1, bias=True)
  )
), 'profile': False, 'use_strategy_defaults': True}","{'inference_time': 0.05438059179028075, 'inference_memory_usage': 0.0, 'loss': [… 'mean_rewards': [… 'training_memory_usage': 0.0, 'training_time': 2339.3400795459747, 'flops': None, 'parameters': None}"
graph_gat_v2,"PPOConfig: {'scenario_name': 'balance', 'strategy': <EmbeddingStrategy.GRAPH_GAT_
…
set_transformer_inv,"PPOConfig: {'scenario_name': 'balance', 'strategy': <EmbeddingStrategy.SET_TRANSFORMER_INV: 'set_transformer_inv'>, 'n_agents': 20, 'decentralized_execution': True, 'frames_per_batch': 6000, 'n_iters': 10, 'num_epochs': 8, 'minibatch_size': 400, 'lr': 0.0003, 'max_grad_norm': 1.0, 'clip_epsilon': 0.2, 'gamma': 0.99, 'lmbda': 0.9, 'entropy_eps': 0.0001, 'max_steps': 200, 'embedding_depth': 2, 'embedding_num_cells': None, 'hidden_layer_width': 48, 'use_encoder_mlp': True, 'attention_heads': 2, 'model_dim': 32, 'max_agents': 20, 'inducing_points': 4, 'mlp_core_depth': 2, 'mlp_core_num_cells': 64, 'pooling_method': 'mean', 'embedding_mlp_critic': None, 'core_mlp_actor': MultiAgentMLP(
    MLP(
      (0): Linear(in_features=16, out_features=64, bias=True)
      (1): Tanh()
      (2): Linear(in_features=64, out_features=64, bias=True)
      (3): Tanh()
      (4): Linear(in_features=64, out_features=4, bias=True)
    ),
    n_agents=20,
    share_params=True,
    centralized=False,
    agent_dim=-2), 'core_mlp_critic': SetTransformerInv(
  (enc): Sequential(
    (0): ISAB(
      (mab0): MAB(
        (fc_q): Linear(in_features=32, out_features=32, bias=True)
        (fc_k): Linear(in_features=16, out_features=32, bias=True)
        (fc_v): Linear(in_features=16, out_features=32, bias=True)
        (fc_o): Linear(in_features=32, out_features=32, bias=True)
      )
      (mab1): MAB(
        (fc_q): Linear(in_features=16, out_features=32, bias=True)
        (fc_k): Linear(in_features=32, out_features=32, bias=True)
        (fc_v): Linear(in_features=32, out_features=32, bias=True)
        (fc_o): Linear(in_features=32, out_features=32, bias=True)
      )
    )
    (1): ISAB(
      (mab0): MAB(
        (fc_q): Linear(in_features=32, out_features=32, bias=True)
        (fc_k): Linear(in_features=32, out_features=32, bias=True)
        (fc_v): Linear(in_features=32, out_features=32, bias=True)
        (fc_o): Linear(in_features=32, out_features=32, bias=True)
      )
      (mab1): MAB(
        (fc_q): Linear(in_features=32, out_features=32, bias=True)
        (fc_k): Linear(in_features=32, out_features=32, bias=True)
        (fc_v): Linear(in_features=32, out_features=32, bias=True)
        (fc_o): Linear(in_features=32, out_features=32, bias=True)
      )
    )
  )
  (pooling): Sequential(
    (0): PMA(
      (mab): MAB(
        (fc_q): Linear(in_features=32, out_features=32, bias=True)
        (fc_k): Linear(in_features=32, out_features=32, bias=True)
        (fc_v): Linear(in_features=32, out_features=32, bias=True)
        (fc_o): Linear(in_features=32, out_features=32, bias=True)
      )
    )
  )
  (dec): Sequential(
    (0): SAB(
      (mab): MAB(
        (fc_q): Linear(in_features=48, out_features=32, bias=True)
        (fc_k): Linear(in_features=48, out_features=32, bias=True)
        (fc_v): Linear(in_features=48, out_features=32, bias=True)
        (fc_o): Linear(in_features=32, out_features=32, bias=True)
      )
    )
    (1): SAB(
      (mab): MAB(
        (fc_q): Linear(in_features=32, out_features=32, bias=True)
        (fc_k): Linear(in_features=32, out_features=32, bias=True)
        (fc_v): Linear(in_features=32, out_features=32, bias=True)
        (fc_o): Linear(in_features=32, out_features=32, bias=True)
      )
    )
    (2): Linear(in_features=32, out_features=1, bias=True)
  )
), 'profile': False, 'use_strategy_defaults': True}","{'inference_time': 0.05196510727082068, 'inference_memory_usage': 0.0, 'loss': [… 'mean_rewards': [… 'training_memory_usage': 0.0, 'training_time': 5042.473424911499, 'flops': None, 'parameters': None}"
transformer_global,"PPOConfig: {'scenario_name': 'balance', 'strategy': <EmbeddingStrategy.TRANSFORMER_GLOBAL: 'transformer_global'>, 'n_agents': 20, 'decentralized_execution': True, 'frames_per_batch': 6000, 'n_iters': 10, 'num_epochs': 8, 'minibatch_size': 400, 'lr': 0.0003, 'max_grad_norm': 1.0, 'clip_epsilon': 0.2, 'gamma': 0.99, 'lmbda': 0.9, 'entropy_eps': 0.0001, 'max_steps': 200, 'embedding_depth': 1, 'embedding_num_cells': None, 'hidden_layer_width': 48, 'use_encoder_mlp': True, 'attention_heads': 1, 'model_dim': 32, 'max_agents': 20, 'inducing_points': 4, 'mlp_core_depth': 2, 'mlp_core_num_cells': 64, 'pooling_method': 'mean', 'embedding_mlp_critic': AgentTransformer(
  (input_projection): Linear(in_features=16, out_features=32, bias=True)
  (transformer_encoder): TransformerEncoder(
    (layers): ModuleList(
      (0): TransformerEncoderLayer(
        (self_attn): MultiheadAttention(
          (out_proj): NonDynamicallyQuantizableLinear(in_features=32, out_features=32, bias=True)
        )
        (linear1): Linear(in_features=32, out_features=2048, bias=True)
        (dropout): Dropout(p=0.1, inplace=False)
        (linear2): Linear(in_features=2048, out_features=32, bias=True)
        (norm1): LayerNorm((32,), eps=1e-05, elementwise_affine=True)
        (norm2): LayerNorm((32,), eps=1e-05, elementwise_affine=True)
        (dropout1): Dropout(p=0.1, inplace=False)
        (dropout2): Dropout(p=0.1, inplace=False)
      )
    )
  )
  (output_layer): Linear(in_features=32, out_features=16, bias=True)
), 'core_mlp_actor': MultiAgentMLP(
    MLP(
      (0): Linear(in_features=16, out_features=64, bias=True)
      (1): Tanh()
      (2): Linear(in_features=64, out_features=64, bias=True)
      (3): Tanh()
      (4): Linear(in_features=64, out_features=4, bias=True)
    ),
    n_agents=20,
    share_params=True,
    centralized=False,
    agent_dim=-2), 'core_mlp_critic': MLP(
  (0): Linear(in_features=32, out_features=64, bias=True)
  (1): Tanh()
  (2): Linear(in_features=64, out_features=64, bias=True)
  (3): Tanh()
  (4): Linear(in_features=64, out_features=1, bias=True)
), 'profile': False, 'use_strategy_defaults': True}","{'inference_time': 0.054136387666865224, 'inference_memory_usage': 0.0, 'loss': [… 'mean_rewards': [… 'training_memory_usage': 0.0, 'training_time': 8401.897366762161, 'flops': None, 'parameters': None}"
